DDQN/ddqn.pth (torch, 30663 bytes, 8 tensors)

fc1.weight f4 [64, 8]
0	0x3eeb1b57	0.45919296
1	0xbfea029e	-1.8282049
2	0xbe7c259b	-0.2462372
3	0x3ef7e650	0.48417902
4	0x3b332c3a	0.0027339594
5	0x3d3d28c1	0.046181444
6	0xbdd726a2	-0.105054155
7	0x3e52bd69	0.20580067
8	0x3ee2db41	0.44307902
9	0xbefaccf6	-0.48984498
10	0xbf276470	-0.6538763
11	0x3e5bdd9a	0.21471253
12	0xbf6e17a3	-0.93004817
13	0x3f8ab798	1.0837278
14	0x3ebeb5b8	0.37248015
15	0x3e96d292	0.29457527
16	0x3e282490	0.16420197
17	0xbd933130	-0.07187116
18	0xbedf8dde	-0.43662924
19	0x3e89b6a4	0.26897156
20	0xbfabc4b0	-1.3419399
21	0xbe9a05a0	-0.30082417
22	0xbde3a322	-0.111150995
23	0xbdc1beac	-0.09460196
24	0xbc27c4cd	-0.010239792
25	0xbdcf5cf2	-0.1012515
26	0x3e97e6a8	0.29668164
27	0xbe838c5f	-0.25693032
28	0x3e46e0d4	0.19421703
29	0xbf1f80a9	-0.62305695
30	0xbee324f5	-0.44364133
31	0x3ee4a81f	0.44659516
32	0xbe060dd6	-0.13091215
33	0x3ea1537c	0.31509006
34	0x3db003d7	0.085944824
35	0x3e808cd2	0.25107437
36	0x3f570d4c	0.84004664
37	0xbe828d31	-0.25498345
38	0xbe834368	-0.25637364
39	0x3e6c2d3d	0.23064132
40	0x3ee9d5fe	0.45671076
41	0xbf0b68aa	-0.5445658
42	0xbeb18bfa	-0.34677106
43	0xbf5b09cf	-0.8556184
44	0xbe5d7eae	-0.21630356
45	0x3e271442	0.16316321
46	0xbe808f78	-0.25109458
47	0x3dbcacfb	0.09212681
48	0x3f076b64	0.5289824
49	0xbf83c9f3	-1.0296005
50	0x3f3330dd	0.69996434
51	0xbed6390a	-0.41840392
52	0xbe3863a1	-0.18006755
53	0x3e14efd6	0.14544615
54	0xbdd97451	-0.10617889
55	0xbe93778c	-0.28802145
56	0xbf060c6b	-0.523627
57	0x3e05581c	0.13021892
58	0x3e756cde	0.23967311
59	0xbf26a831	-0.6510039
60	0xbeb92712	-0.3616262
61	0x3e9d35c6	0.30705088
62	0xbd78f74e	-0.060782723
63	0x3d84c820	0.06483483
64	0xbe46300e	-0.19354269
65	0x3d70e3ea	0.058811106
66	0xbe49e5ea	-0.19716612
67	0xbd22ae33	-0.03971691
68	0xbde4555a	-0.11149092
69	0xbf265c4b	-0.6498458
70	0xbd67db48	-0.056605607
71	0x3e3c37ee	0.1838071
72	0xbdb67e74	-0.08910838
73	0x3e6608ab	0.22464244
74	0xbef96910	-0.4871297
75	0x3e6d3646	0.23165235
76	0x3eb61e75	0.35570112
77	0xbf8f96cb	-1.1217893
78	0xbe44d813	-0.19223051
79	0xbe040a6f	-0.12894605
80	0x3f7793ed	0.9671009
81	0xbe178bdf	-0.1479945
82	0x3ec752a7	0.38930246
83	0xbeec9503	-0.46207437
84	0x3e647548	0.22310364
85	0x3c7ecfd7	0.015552483
86	0xbdf4320d	-0.11923609
87	0xbe4678cb	-0.19382016
88	0x3e9dfa57	0.30855057
89	0xbf621839	-0.8831821
90	0x3d6d3da3	0.05792011
91	0x3f323c69	0.6962343
92	0xbd1b5b00	-0.03792858
93	0xbe303d2f	-0.1721084
94	0x3efc3200	0.49256897
95	0xbe38be48	-0.18041337
96	0x3ed8d30c	0.42348516
97	0xbed688ac	-0.41901147
98	0x3d217b45	0.0394242
99	0xbe79e19a	-0.24402466
100	0xbf57dae0	-0.8431835
101	0x3e184d6a	0.14873281
102	0xbe7bb2a6	-0.24579868
103	0x3deec3bf	0.11658429
104	0xbea731da	-0.3265522
105	0x3e2f9ffe	0.17150876
106	0x3e83e543	0.2576085
107	0xbf172f3a	-0.59056437
108	0xbfa1259f	-1.2589606
109	0x3ec1f88e	0.37884945
110	0xbba1e869	-0.0049410355
111	0x3e93c931	0.28864434
112	0xbef39b07	-0.47579214
113	0xbe943118	-0.28943706
114	0xbe20a38c	-0.15687388
115	0xbe93e425	-0.28884998
116	0xbde1c636	-0.11024134
117	0x3e460b70	0.193403
118	0x3ea8af7c	0.32946384
119	0xbf51adff	-0.8190612
120	0x3df296c0	0.118451595
121	0xbda18bca	-0.07887991
122	0x3e44e7e1	0.1922908
123	0x3e052b4b	0.13004796
124	0xbf61bee8	-0.88181925
125	0xbf076b90	-0.528985
126	0x3ecd1171	0.4005237
127	0x3e833225	0.25624195
128	0x3e0d656c	0.1380822
129	0xbf6d886d	-0.92786294
130	0xbe9df392	-0.30849892
131	0xbf59bc91	-0.85053355
132	0x3e98ac84	0.2981912
133	0xbe257c34	-0.16160661
134	0xbf4e3f98	-0.80565786
135	0x3e8e5871	0.2780185
136	0x3dcf8f50	0.101347566
137	0x3e9b7846	0.303652
138	0x3dcccccb	0.09999999
139	0x3f216b1c	0.6305406
140	0xbe469633	-0.19393234
141	0xbd1770aa	-0.03697268
142	0xbf119748	-0.5687146
143	0x3dcb55fb	0.09928509
144	0x3f0ad364	0.54228806
145	0xbf39db83	-0.72600573
146	0xbe5e9a76	-0.2173861
147	0xbf00bee5	-0.5029128
148	0x3ebacc52	0.3648401
149	0xbec4138d	-0.38296166
150	0xbef4930b	-0.47768435
151	0x3dc9c2d8	0.098516166
152	0xbea6df2d	-0.32592145
153	0x3712f0c5	8.758337e-06
154	0x3eb2fd7e	0.34959024
155	0x3e342357	0.17591606
156	0x3faa5e66	1.3310058
157	0x3f760a6e	0.96109664
158	0xbdee2255	-0.11627642
159	0x3e46a823	0.19400077
160	0xbf35f98b	-0.710839
161	0xbf44ba46	-0.7684673
162	0xbd497f38	-0.04919359
163	0xbf13d3b7	-0.57744926
164	0x3ebe1ea5	0.37132755
165	0xbd9ccbf8	-0.076560915
166	0xbe2c7fff	-0.16845702
167	0x3da043a0	0.078253984
168	0x3eb78945	0.35846916
169	0x3e154b6d	0.14579554
170	0x3e8b1883	0.27167138
171	0x3ea01122	0.3126307
172	0xbd3f8a03	-0.046762478
173	0x3f017050	0.50562
174	0x3ea75929	0.3268521
175	0xbf8df028	-1.1088915
176	0xbe4abb72	-0.19798067
177	0xbcb8a6c1	-0.022540452
178	0xbf1e6c08	-0.6188359
179	0xbe34b98c	-0.17648906
180	0x3f5693ac	0.8381908
181	0x3d4ff94d	0.05077486
182	0x3c8b7dd0	0.017027766
183	0xbe919769	-0.2843583
184	0xbe936dab	-0.28794608
185	0xbdd0b244	-0.101902515
186	0x3d9f8852	0.07789673
187	0xbf16451d	-0.5869921
188	0x3dd18065	0.102295674
189	0x3f25c378	0.64751387
190	0xbdab0e2a	-0.08352311
191	0xbe90166a	-0.281421
192	0x3e8b57d8	0.27215457
193	0xbf0eb6c4	-0.5574763
194	0x3e6f1ec7	0.23351584
195	0xbf6cb0a6	-0.92457044
196	0xbe878783	-0.26470575
197	0xbd96f86e	-0.07371603
198	0x3d67b94a	0.05657319
199	0xbd9b2a41	-0.07576419
200	0xbd352bdd	-0.044231284
201	0xbe9f1d45	-0.31077018
202	0xbfca377d	-1.5798184
203	0x3f55a18c	0.83449626
204	0x3f63e28f	0.89017576
205	0xbeed1e76	-0.46312302
206	0x3e5be31a	0.21473351
207	0x3e2eec5f	0.17082356
208	0x3f8aadd6	1.08343
209	0xbe8b3ac6	-0.27193278
210	0x3e1e3508	0.15449917
211	0x3e55c322	0.20875219
212	0xbde5dfcb	-0.11224326
213	0xbdce39e4	-0.100696355
214	0x3d481522	0.04884828
215	0x3cdcce41	0.026953818
216	0xbe8cdae2	-0.27510744
217	0xbcde468e	-0.027133252
218	0xbeb2a3ed	-0.3489069
219	0xbed4a989	-0.41535595
220	0xbe51822c	-0.20459813
221	0xbf248345	-0.642628
222	0xbe469b5e	-0.19395205
223	0xbeffcfff	-0.49963376
224	0x3a0707ca	0.0005151002
225	0xbe00acc4	-0.12565905
226	0xbf96395e	-1.1736257
227	0xbf1457b7	-0.5794634
228	0x3e9bc266	0.30421752
229	0xbecbcad8	-0.39803195
230	0xbd5ba512	-0.05362422
231	0x3e797bb8	0.24363601
232	0x3e7007ae	0.2344043
233	0x3ef0b9be	0.4701671
234	0xbe02b877	-0.1276568
235	0xbb6b500c	-0.0035905866
236	0xbde66f85	-0.112517394
237	0x3efdec06	0.49594134
238	0xbe6c4a66	-0.23075256
239	0xbd8b0249	-0.06787545
240	0xbdd88d2c	-0.105738014
241	0xbe9914c0	-0.29898643
242	0x3e12bfcd	0.14330979
243	0xbf611631	-0.87924486
244	0x3ef22570	0.47294188
245	0xbee45144	-0.4459325
246	0xbe91522f	-0.28383014
247	0x3da00eca	0.07815321
248	0xbe0a8752	-0.13528183
249	0x3ea87ba7	0.3290684
250	0x3d325fe0	0.043548465
251	0x3e3895fc	0.18025964
252	0x3f509d75	0.8149026
253	0x3f03f1b2	0.5154067
254	0xbe7a45eb	-0.24440734
255	0x3e1cc67e	0.15310094

fc1.bias f4 [64]
0	0x3ec19ad7	0.37813446
1	0x3cf1be56	0.029509705
2	0xbe3f471d	-0.18679471
3	0x3e01b953	0.12668352
4	0x3ec2d323	0.3805171
5	0x3f2273a7	0.6345772
6	0xbd07899b	-0.033090215
7	0x3e13b4d2	0.14424446
8	0xbde5f5c3	-0.11228516
9	0x3e64774b	0.22311132
10	0x3d7e9f32	0.06216354
11	0x3f05e5e3	0.52303904
12	0x3e800353	0.25002536
13	0xbe42e415	-0.19032319
14	0xbe5eef37	-0.2177094
15	0x3e80d1fb	0.25160202
16	0x3e060718	0.13088644
17	0x3e3e076a	0.18557516
18	0xbe84d3b6	-0.25942773
19	0x3cd55d92	0.026045594
20	0x3da79992	0.08183588
21	0x3e3f3ce2	0.18675569
22	0x3ebe1ec5	0.3713285
23	0x3cb00c1f	0.021490155
24	0x3efa1f44	0.4885198
25	0x3ef0f39b	0.47060856
26	0xbd1a3b7f	-0.037654396
27	0xbec8e50f	-0.39237258
28	0x3e4c34ce	0.19942018
29	0x3efe6ff9	0.49694803
30	0x3ea029c6	0.3128187
31	0x3e923c99	0.28561857
32	0x3de81d1b	0.113336764
33	0xbe9cc1a7	-0.30616495
34	0xbe866217	-0.26246712
35	0x3e5d05c6	0.21584234
36	0x3e14430e	0.14478704
37	0x3eceffe2	0.40429598
38	0xbdce7815	-0.100814976
39	0xbdc08227	-0.093998246
40	0xbea3c26d	-0.31984273
41	0xbe3f0da4	-0.18657547
42	0xbd88fd72	-0.06688966
43	0xbeaec0d2	-0.34131485
44	0xbde262d2	-0.11054005
45	0xbe972334	-0.29519045
46	0x3cbd94b1	0.02314219
47	0x3ca9bdaa	0.020720322
48	0x3e183abc	0.14866155
49	0x3e6fb0b6	0.23407254
50	0x3dcff63e	0.10154389
51	0x3e971059	0.2950466
52	0xbded4e3c	-0.11587188
53	0x3d2d7c91	0.042355124
54	0x3ed12692	0.4084974
55	0x3e7aae75	0.24480613
56	0xbe2591fd	-0.16168971
57	0x3e1959b1	0.14975621
58	0x3f292279	0.66068226
59	0x3e85af92	0.26110512
60	0x3e5ecd6d	0.21758051
61	0xbe54777c	-0.20748705
62	0x3e67bd7a	0.22630873
63	0x3eaba478	0.33523917

fc2.weight f4 [64, 64]
0	0xbf3131a1	-0.6921635
1	0xbecc6ce9	-0.39926842
2	0xbf42cd39	-0.76094395
3	0x3e8f3520	0.2797022
4	0xbc81d238	-0.01584731
5	0x3e863dc2	0.26218992
6	0x3eaca7e9	0.33721855
7	0xbe9d6dd8	-0.30747867
8	0x3d35dc5a	0.044399597
9	0xbe20cb28	-0.15702498
10	0x3d112793	0.03543813
11	0xbe566ad2	-0.20939186
12	0xbe781e86	-0.24230394
13	0x3d19c9c7	0.037545945
14	0x3f269322	0.65068257
15	0xbe22f7f3	-0.15914898
16	0xbf20840d	-0.62701494
17	0x3e970b01	0.29500583
18	0xbe58fa5d	-0.21189256
19	0x3e05ccdb	0.13066427
20	0x3efa1af3	0.48848686
21	0x3dabb0a9	0.083833046
22	0x3e4a9e02	0.19786838
23	0x3ea2298b	0.3167232
24	0x3e354314	0.1770137
25	0xbe57a2e8	-0.21058238
26	0x3ecd6fa0	0.40124226
27	0x3f00b5ea	0.5027758
28	0x3db5c8f9	0.08876223
29	0xbcda5003	-0.02664948
30	0x3ec329a6	0.38117713
31	0xbeaad7c2	-0.33367735
32	0x3e6e904d	0.23297234
33	0xbe5b93ee	-0.2144315
34	0xbe3ddb2f	-0.18540643
35	0x3ed51978	0.41620994
36	0xbe009e0a	-0.12560287
37	0x3db0f74d	0.08640919
38	0xbf87532d	-1.0572258
39	0xbecf6422	-0.40506083
40	0xbe6fb806	-0.23410043
41	0xbfb4fb01	-1.41391
42	0xbef3800b	-0.47558627
43	0xbf67b252	-0.9050647
44	0xbd90770f	-0.070539586
45	0x3e683e85	0.226801
46	0xbe90585a	-0.28192407
47	0xbd8f4b14	-0.06996742
48	0xbedf52fc	-0.43618
49	0xbf1f8c74	-0.6232369
50	0x3e087dfd	0.1332931
51	0x3df2ddf5	0.11858741
52	0xbdac9838	-0.08427471
53	0x3d34c605	0.04413416
54	0x3eacbae7	0.33736345
55	0x3dc5ab4f	0.09651815
56	0xbd13de6e	-0.036100797
57	0xbd7c37c7	-0.06157663
58	0x3e4d20aa	0.20031992
59	0xbe8f1b7b	-0.27950653
60	0x3e08e414	0.13368255
61	0xbed388b3	-0.4131523
62	0xbe524543	-0.20534234
63	0x3d3d2859	0.046181057
64	0x3d3ae10c	0.045624778
65	0xbd385397	-0.045001592
66	0xbeb5def9	-0.35521677
67	0x3dd2b23b	0.10287901
68	0x3dc2cf66	0.09512214
69	0xbec93caa	-0.39304096
70	0xbe302b19	-0.1720394
71	0xbed8561c	-0.42253196
72	0x3ef8a625	0.48564258
73	0xbcf05ffd	-0.029342646
74	0x3e58df70	0.21178985
75	0x3e1f0347	0.15528594
76	0x3e5cc349	0.2155887
77	0xbbb1d606	-0.005427125
78	0xbd0e59f7	-0.034753766
79	0x3ec3ca3c	0.3824023
80	0xbe82ddb3	-0.25559768
81	0x3ea91069	0.33020332
82	0xbed4657e	-0.41483682
83	0x3e666f0e	0.22503302
84	0xbe1c1bc2	-0.15244964
85	0x3e97157f	0.29508588
86	0x3e28db64	0.16489941
87	0x3e4cc1ce	0.19995806
88	0xbd0e9c85	-0.034817237
89	0x3f0b0af0	0.54313564
90	0x3f5925b3	0.8482315
91	0xbe819476	-0.2530858
92	0x3d9c9c86	0.07647042
93	0x3e4d7382	0.20063594
94	0xbe62b3af	-0.22138856
95	0x3eac6301	0.33669284
96	0x3e835b0f	0.2565541
97	0x3f067509	0.5252233
98	0x3e17d7c5	0.14828403
99	0xbe5fc255	-0.21851476
100	0x3ebaad25	0.36460224
101	0xbf02e0c7	-0.51124233
102	0xbf0a3b0e	-0.5399636
103	0xbe8d51c0	-0.27601433
104	0x3e57a1cd	0.21057816
105	0xbdb0c50f	-0.08631336
106	0x3ed6c28f	0.4194531
107	0x3ea05a8b	0.3131908
108	0x3edddc0a	0.4333194
109	0xbd373135	-0.04472466
110	0xbf54ab17	-0.8307356
111	0x3cdf510d	0.027260328
112	0x3e808a6c	0.25105608
113	0x3f00677c	0.50157905
114	0xbe459ac7	-0.19297324
115	0x3e0cc3ef	0.13746618
116	0x3e94ff86	0.291012
117	0x3ed927d7	0.42413208
118	0xbdfe3d13	-0.12413993
119	0x3d831fac	0.06402525
120	0x3e93b4f7	0.28849003
121	0xbf271b16	-0.65275705
122	0x3e196804	0.14981085
123	0x3ed4c848	0.41559052
124	0xbd6a6cf8	-0.057232827
125	0xbe86c186	-0.26319522
126	0x3e3c4177	0.18384348
127	0xbe054cf9	-0.13017644
128	0x3e287023	0.16449027
129	0x3d97cc5e	0.07412027
130	0xbcedc148	-0.029022828
131	0xbe66ce19	-0.22539558
132	0xbedf89ad	-0.43659726
133	0xbc5d187c	-0.013494607
134	0xbad01760	-0.0015876107
135	0xbe994ae9	-0.29939964
136	0x3e3edc0e	0.18638632
137	0xbec0d85d	-0.37665072
138	0x3e424ccc	0.18974608
139	0xbc47fc59	-0.01220616
140	0x3dc469f3	0.09590521
141	0xbdd94fc8	-0.1061092
142	0x3e6873e0	0.22700453
143	0xbdf3b3a6	-0.118994996
144	0x3da31e27	0.079647355
145	0xbe53df85	-0.20690735
146	0x3dba7995	0.09105221
147	0xbefa6973	-0.48908576
148	0x3e4b2a9d	0.19840474
149	0xbe1b9362	-0.15192941
150	0x3df16721	0.117872484
151	0xbbc9114b	-0.0061360947
152	0xbca9ba23	-0.02071864
153	0xbe470707	-0.19436274
154	0xbe0f1301	-0.13972093
155	0x3d398cf0	0.045300424
156	0xbd859052	-0.065216675
157	0xbe9d5b84	-0.30733883
158	0x3e5fade2	0.21843675
159	0xbf36e88a	-0.71448576
160	0x3d1ee290	0.038790286
161	0xbba9faed	-0.0051873834
162	0xbc2aae32	-0.010417508
163	0xbcf686e5	-0.03009362
164	0xbccff8ff	-0.025387285
165	0x3df4de6c	0.11956486
166	0xbe3ea3f9	-0.18617238
167	0xbd87b13f	-0.06625604
168	0xbd8ca4cc	-0.0686737
169	0xbe0595bb	-0.13045399
170	0xbc4f6901	-0.012659312
171	0x3c813fc0	0.015777469
172	0xbe0d82c4	-0.13819414
173	0x3e47f3e4	0.1952663
174	0xbcd8ea1c	-0.02647882
175	0xbe00e832	-0.12588575
176	0x3dd11d89	0.102107115
177	0xbef98f29	-0.48742035
178	0xbe047ba9	-0.12937798
179	0xbe4a4f33	-0.19756775
180	0xbe0f99cb	-0.14023511
181	0xbe3cbb8c	-0.18430918
182	0xbd99329c	-0.07480356
183	0x3e5e30fb	0.21698372
184	0x3ded5317	0.11588114
185	0xbd9341eb	-0.07190307
186	0x3d8538e3	0.06504991
187	0xbd18355c	-0.037160262
188	0xbd5a1457	-0.053242054
189	0xbecc1b83	-0.3986474
190	0xbd8e8677	-0.06959241
191	0xbce25fba	-0.027633537
192	0xbd8bc4c0	-0.068246365
193	0x3d166810	0.036720335
194	0x3dca058e	0.09864341
195	0xbd492638	-0.049108714
196	0x3d4d72b8	0.050158232
197	0xbdfd77ca	-0.123763636
198	0xbda8f1dc	-0.08249256
199	0xbd0579bc	-0.032586798
200	0x3cb096e8	0.021556333
201	0xbdcc23f8	-0.09967798
202	0x3c935330	0.017984003
203	0xbd81bc42	-0.063347355
204	0xbd6ec56c	-0.058293745
205	0x3dc38556	0.09546916
206	0xbdbbbd18	-0.09166926
207	0xbd432ae4	-0.047648326
208	0xbdf58b1c	-0.11989424
209	0xbdbde224	-0.092716485
210	0x3d3dd338	0.046344012
211	0xbd79f754	-0.061026886
212	0xbd413818	-0.047172636
213	0x3d8160ca	0.06317289
214	0xbdda6da0	-0.106654406
215	0xbd3ee368	-0.04660359
216	0xbdbc05a8	-0.09180766
217	0xbc4b67c0	-0.012414873
218	0xbcf8ab18	-0.030355021
219	0x3d010f54	0.03150876
220	0xbc2ce000	-0.010551453
221	0xbc4c1d70	-0.01245819
222	0x3caacb70	0.02084896
223	0xbc1db180	-0.009624839
224	0x3c043340	0.00806886
225	0x3bb2da20	0.0054581314
226	0x3d045268	0.03230515
227	0xbcce18f8	-0.02515839
228	0x3dd79fb2	0.10528506
229	0x3c6d5870	0.014486417
230	0x3daaf258	0.08347005
231	0x3d908000	0.07055664
232	0xbd97a7e8	-0.074050725
233	0xbdf801b0	-0.12109697
234	0xbdc0db12	-0.09416784
235	0x3dd0a68c	0.10188016
236	0x3c34d4b0	0.011037037
237	0x3c92bad0	0.017911345
238	0x3d551c50	0.052028954
239	0xbd818598	-0.06324309
240	0x3daf4476	0.0855798
241	0xbc1cd090	-0.00957121
242	0xbd34378c	-0.043998286
243	0xbdeb23e0	-0.11481452
244	0xbdfb37b4	-0.12266484
245	0xbd950428	-0.07276183
246	0xbcba05c0	-0.02270782
247	0xbdb1c266	-0.08679657
248	0x3dd302ac	0.10303244
249	0x3df910c8	0.12161404
250	0xbc79cc80	-0.0152465105
251	0xbc5b3d40	-0.013381302
252	0xbc9f6bd0	-0.019460589
253	0xbd92fc48	-0.07177025
254	0xbdd5c2c0	-0.10437536
255	0xbdd3f112	-0.10348715

fc2.bias f4 [64]
0	0x3de256b5	0.11051694
1	0x3e33b8c1	0.17550947
2	0xbd8b3f84	-0.06799224
3	0x3d0f1830	0.034935176
4	0xbdc9d5cf	-0.09855234
5	0xbe2206a9	-0.15822853
6	0x3cfe5edc	0.031051092
7	0xbdd5de8d	-0.10442839
8	0x3e82a050	0.25512934
9	0xbe4b264e	-0.19838831
10	0x3e22b462	0.15889123
11	0xbdfe20b4	-0.124085814
12	0x3e4ae931	0.19815518
13	0x3e9346c3	0.28764924
14	0x3e70987b	0.23495667
15	0x3cfddea3	0.03098995
16	0xbdddfa78	-0.10838789
17	0x3cbf86dc	0.023379736
18	0x3d8ac7f6	0.06776421
19	0xbe37ee6f	-0.17962049
20	0xbda6213e	-0.08111809
21	0x3e02ccfd	0.1277351
22	0x3daf003c	0.085449666
23	0x3d9c5513	0.07633414
24	0x3a943975	0.0011308627
25	0xbd8258a3	-0.06364562
26	0xbd90525e	-0.0704696
27	0x3d3cfd8b	0.046140235
28	0x3d374dd6	0.044751965
29	0x3d4f19ac	0.050561592
30	0x3d585390	0.052814066
31	0xbde7857b	-0.11304756
32	0x3dc8877f	0.09791469
33	0xbd6aba12	-0.057306357
34	0xbdf7b40d	-0.12094889
35	0x3e3ea835	0.18618853
36	0x3acfd039	0.0015854902
37	0xbbbf97cd	-0.0058469535
38	0x3e2f015f	0.17090367
39	0x3dfe1974	0.124071985
40	0x3d1b6184	0.037934795
41	0xbdd3620c	-0.10321435
42	0x3dd87c0c	0.10570535
43	0x3e105960	0.14096594
44	0x3e5f9c69	0.2183701
45	0x3e995177	0.29944965
46	0xbbe7c5b6	-0.0070731295
47	0xbdba1206	-0.09085469
48	0x3cf6bd33	0.030119514
49	0x3e4b53c4	0.19856173
50	0x3e776952	0.2416127
51	0xbda32790	-0.0796653
52	0xbe157afe	-0.14597699
53	0x3dbf9103	0.09353831
54	0x3c315871	0.010824309
55	0x3cfe65a3	0.031054324
56	0xbc3608d5	-0.011110504
57	0x3d3f1948	0.04665497
58	0xbe03058c	-0.12795085
59	0x3dc391ee	0.09549318
60	0xbdf009f8	-0.117206514
61	0x3d5ac984	0.053414837
62	0x3e23c5d1	0.1599343
63	0x3e8ad9d3	0.27119312

fc3.weight f4 [32, 64]
0	0x3df4cbfc	0.119529694
1	0xbfa52052	-1.2900488
2	0x3d894986	0.067034766
3	0xbc50a0e0	-0.012733668
4	0x3e8ca73c	0.2747134
5	0x3e07f593	0.13277273
6	0xbed1415f	-0.40870187
7	0xbda005c0	-0.07813597
8	0xbf181483	-0.594063
9	0x3e108df6	0.14116654
10	0xbd47f590	-0.04881817
11	0xbdc5a7c0	-0.096511364
12	0xbeab77c0	-0.334898
13	0x3f35d276	0.7102426
14	0x3e2cc616	0.16872439
15	0xbecf82ca	-0.40529472
16	0x3e3652a6	0.17804965
17	0x3ea818d9	0.32831457
18	0x3da44bef	0.08022296
19	0x3e4389d0	0.1909554
20	0xbd132c9b	-0.03593121
21	0x3e9772cb	0.29579768
22	0xbca7347d	-0.02041077
23	0xbeb2fabc	-0.3495692
24	0x3ec1b1fa	0.37831098
25	0xbdbce426	-0.09223203
26	0x3e896266	0.26832885
27	0xbf106db9	-0.56417423
28	0x3eee534e	0.4654793
29	0xbeb0a2dd	-0.34499255
30	0x3e18701c	0.14886516
31	0xbde12392	-0.109931126
32	0xbe6805a9	-0.22658409
33	0x3d462f10	0.048384726
34	0xbe0bc5d6	-0.13649687
35	0xbdfdb180	-0.12387371
36	0x3ee6e0ac	0.45093286
37	0xbe9feec2	-0.31236845
38	0xbe41f037	-0.18939291
39	0x3e8f5c7d	0.2800025
40	0xbe31b270	-0.17353225
41	0xbd714666	-0.058905028
42	0xbf2223b0	-0.63335705
43	0xbe7a6b22	-0.2445493
44	0xbebfcb7c	-0.37459934
45	0xbe7c380c	-0.24630755
46	0xbe081e8c	-0.13292903
47	0xbe6ec2c9	-0.23316492
48	0xbee543a5	-0.4477817
49	0x3e803c8a	0.25046188
50	0xbf47fca3	-0.7811987
51	0x3e7d25b8	0.2472142
52	0xbc10938f	-0.008824243
53	0xbec97889	-0.39349774
54	0xbe43e934	-0.19131929
55	0xbf27c83a	-0.65539896
56	0x3d05ac42	0.03263498
57	0x3d3f0e69	0.046644602
58	0x3e12107a	0.14264098
59	0x3ec424cc	0.38309324
60	0xbd6e52ff	-0.05818462
61	0xbecdee90	-0.4022107
62	0x3ec6c83f	0.3882465
63	0x3f253f3b	0.6454961
64	0xbd872b79	-0.066000886
65	0xbdcec6ac	-0.100964874
66	0xbdb43ec5	-0.08801035
67	0xbc094ba0	-0.008379847
68	0x3aa1c5b2	0.0012342243
69	0xbd80e07b	-0.06292816
70	0xbd92a432	-0.07160224
71	0xbda8fd0a	-0.08251388
72	0xbc99c0fd	-0.018768782
73	0x3d3f67be	0.046729796
74	0x3d673319	0.056445215
75	0xbba99840	-0.0051756203
76	0xbd6dd238	-0.05806181
77	0xbe3508d1	-0.17679144
78	0x3c2a56f4	0.010396708
79	0x3cc2b1f9	0.023766505
80	0xbe21a5db	-0.15785925
81	0xbd9da6c5	-0.076978244
82	0xbded4b5f	-0.115866415
83	0xbdaa181a	-0.08305378
84	0x3dd472be	0.10373448
85	0xbd234d48	-0.039868623
86	0x3d96ec4d	0.073692895
87	0xbe140a84	-0.14457136
88	0x3d869991	0.06572259
89	0xbddfd4f2	-0.10929288
90	0xbd4b5b42	-0.049647577
91	0x3d1a1c9f	0.03762495
92	0xbe268e2d	-0.16265173
93	0xbd7ca979	-0.06168506
94	0xbbff3b1c	-0.007789029
95	0xbb63f550	-0.0034783669
96	0xbcf0caee	-0.02939364
97	0xbcc8dff8	-0.02452086
98	0xbdda3c40	-0.10656023
99	0x3d8e95a7	0.06962138
100	0x3d8b3c9a	0.06798668
101	0xbdae212c	-0.08502421
102	0x3d2b7f61	0.041869525
103	0xbd90e896	-0.07075612
104	0x3d9d75f0	0.076885104
105	0xbd257667	-0.04039612
106	0xbdfdc7f3	-0.12391653
107	0x3da30666	0.07960205
108	0xbdab80b1	-0.08374155
109	0xbe09d3d0	-0.13459706
110	0x3c84c7ba	0.016208518
111	0xbdd7c521	-0.10535646
112	0x3c37379e	0.011182694
113	0xbde9f829	-0.11424286
114	0x3c9450af	0.01810488
115	0xbcc25242	-0.023720864
116	0xbdce113c	-0.10061881
117	0x3d3e8611	0.046514574
118	0x3d7da921	0.061928872
119	0xbcce964f	-0.025218157
120	0xbd50eaf8	-0.051005334
121	0xbdcb4a06	-0.09926228
122	0xbd80541c	-0.062660426
123	0xbe1144e7	-0.1418644
124	0xbbe006a0	-0.0068367273
125	0xbe196178	-0.14978588
126	0x3d8d084d	0.06886349
127	0xbe1499a9	-0.14511742
128	0x3ea9472b	0.3306211
129	0x3f115ef4	0.5678551
130	0x3d668360	0.056277633
131	0x3db18f18	0.08669871
132	0x3d802b98	0.06258315
133	0x3e1e1527	0.15437756
134	0x3e8c31e3	0.2738181
135	0xbd5629b4	-0.052285865
136	0x3c30e9ea	0.010797957
137	0x3e52f32d	0.20600577
138	0x3f06fe75	0.5273202
139	0x3c7f8f72	0.015598165
140	0x3dd211a8	0.10257274
141	0x3dbabd7c	0.091181725
142	0x3d814d31	0.06313551
143	0x3e83f206	0.25770587
144	0x3e4b5082	0.1985493
145	0xbe129a15	-0.1431659
146	0xbeea6f1b	-0.45787892
147	0x3f3d9399	0.7405334
148	0xbcfd223e	-0.030900117
149	0x3e077372	0.13227633
150	0xbee93692	-0.45549446
151	0x3e9228f3	0.28546867
152	0x3ee31012	0.44348198
153	0x3caf44e9	0.021395164
154	0x3e0b136e	0.1358163
155	0xbe8d8b8f	-0.27645537
156	0x3e6a1a21	0.2286153
157	0xbe0394a2	-0.12849668
158	0x3e20a09c	0.15686268
159	0x3da2cb79	0.079489656
160	0x3e8a5899	0.2702072
161	0xbeae1688	-0.34001565
162	0xbdbfc2c7	-0.09363323
163	0x3d0e5cec	0.034756586
164	0xbe2c8a2f	-0.16849588
165	0x3f4946d2	0.7862369
166	0xbe56f077	-0.20990168
167	0x3e9c619f	0.3054323
168	0xbd4a5f1b	-0.049407106
169	0x3e96607e	0.29370493
170	0x3e506a17	0.2035297
171	0x3e8daf1b	0.27672657
172	0x3e66f392	0.22553852
173	0xbd9c4c11	-0.07631696
174	0x3e9fc990	0.31208467
175	0x3e34dca7	0.17662297
176	0xbd687c41	-0.056759123
177	0x3e840cc0	0.25790977
178	0x3ebb7994	0.36616194
179	0xbd8168a7	-0.06318789
180	0x3f028899	0.5098968
181	0x3e03bd51	0.12865187
182	0x3eee085f	0.46490762
183	0xbf61e81b	-0.8824479
184	0x3eb18adf	0.34676263
185	0x3f096858	0.5367484
186	0xbe072327	-0.13197003
187	0xbd91d22a	-0.07120164
188	0xbe028e78	-0.1274966
189	0x3dda6cb2	0.10665263
190	0xbf21e3bc	-0.6323812
191	0x3d18c4c8	0.03729704
192	0x3e27bb02	0.16379932
193	0xbb001a98	-0.00195471
194	0x3cfbdadf	0.030744014
195	0x3d72d950	0.059289277
196	0xbcef6ee3	-0.02922768
197	0x3e187a1f	0.14890336
198	0xbd0cf88d	-0.034416724
199	0x3ece65b8	0.4031198
200	0xbdd744bc	-0.10511157
201	0x3ed314a5	0.41226688
202	0x3f3004dd	0.6875742
203	0xbda6a5fd	-0.081371285
204	0x3cc229d0	0.023701578
205	0x3e521c35	0.20518573
206	0x3e973951	0.29535916
207	0x3ed0d3c0	0.40786552
208	0xbe34100d	-0.17584248
209	0xbd6a58b2	-0.057213493
210	0xbef0b7ba	-0.47015172
211	0x3ecdb1c5	0.4017469
212	0xbd2320b8	-0.039826125
213	0x3ddddfbe	0.10833691
214	0xbf5f5361	-0.872366
215	0x3d703a9f	0.058649655
216	0x3b9c358d	0.004767126
217	0x3cb064d6	0.021532457
218	0x3ef768e5	0.48322216
219	0xbd748ff9	-0.059707616
220	0xbeff20f3	-0.49829826
221	0xbe0f2171	-0.139776
222	0x3e4ed53e	0.20198533
223	0xbd98b6aa	-0.074567154
224	0x3e3c284c	0.18374747
225	0xbf46bf2e	-0.7763547
226	0xbe0af741	-0.13570882
227	0x3d93f4b0	0.07224405
228	0xbe101dd2	-0.14073876
229	0x3e1c279f	0.15249489
230	0xbf6afbca	-0.9179045
231	0xbf43dc6b	-0.76508206
232	0x3e9abf8f	0.30224273
233	0x3e895533	0.26822814
234	0x3f21c6cb	0.6319396
235	0xbe65dcb7	-0.22447477
236	0x3e7ef05d	0.24896379
237	0x3e192a27	0.14957486
238	0x3e01c590	0.1267302
239	0xbda09762	-0.07841374
240	0xbf477b66	-0.77922666
241	0xbdf11373	-0.11771288
242	0x3e051849	0.12997545
243	0xbd5d52c4	-0.05403401
244	0x3f65906b	0.8967349
245	0x3eaf2c2d	0.3421339
246	0x3e5673e4	0.20942646
247	0xbf2d6674	-0.67734456
248	0x3f349726	0.70543134
249	0xbde5e06e	-0.11224447
250	0xbdd085c7	-0.10181766
251	0x3e6ef7f8	0.2333678
252	0x3d148014	0.036254957
253	0x3ec8cc20	0.39218235
254	0xbd90e993	-0.07075801
255	0xbe536af1	-0.20646264

fc3.bias f4 [32]
0	0x3e27baa7	0.16379796
1	0xbe1df7b6	-0.15426525
2	0x3d657cde	0.056027286
3	0xbdb4598e	-0.08806144
4	0xbe8bbcfc	-0.2729262
5	0x3e1f5524	0.15559822
6	0xbd5e0670	-0.054205358
7	0xbe6c190e	-0.23056433
8	0x3e4e565b	0.2015013
9	0x3e0edc5f	0.13951252
10	0x3de96b65	0.11397437
11	0xbe272088	-0.16321003
12	0xbcc6ce4e	-0.024268296
13	0x3e2585a4	0.16164261
14	0x3dc402a6	0.09570818
15	0xbe147b3b	-0.14500134
16	0xbe961939	-0.29316118
17	0xbe1a7fc1	-0.15087797
18	0xbd9f72c6	-0.07785563
19	0x3af05f52	0.0018338955
20	0x3d863334	0.06552735
21	0xbd568fab	-0.052383106
22	0xbe39a90b	-0.18130891
23	0x3e00f9ca	0.12595287
24	0x3e026f46	0.1273776
25	0x3c953156	0.018212002
26	0x3e83b3f6	0.25723237
27	0x3e856935	0.2605683
28	0x3e86df54	0.2634226
29	0x3d25f56a	0.04051725
30	0x3e58e791	0.21182086
31	0x3d5eb28c	0.054369494

out.weight f4 [4, 32]
0	0x3ece4881	0.4028969
1	0x3e054200	0.13013458
2	0xbeb04a33	-0.3443161
3	0xbf1d1a48	-0.61368227
4	0xbb65aa44	-0.0035044113
5	0xbe6eaf91	-0.23309161
6	0xbeb9c237	-0.36280987
7	0xbe3043cc	-0.17213362
8	0x3f13c096	0.5771574
9	0xbe7088b3	-0.23489647
10	0x3edf8d86	0.4366266
11	0xbe8fe602	-0.2810517
12	0x3f5140df	0.8173961
13	0x3f2d2e0f	0.67648405
14	0xbec3aabc	-0.38216197
15	0xbe88b7b5	-0.26702657
16	0xbbbfbd4a	-0.0058514224
17	0x3f681f6e	0.9067296
18	0xbcb59e17	-0.02217011
19	0x3e9dc2d8	0.30812716
20	0xbec0f60c	-0.3768772
21	0xbde26e3f	-0.11056184
22	0xbeb50de7	-0.3536217
23	0xbdc50df7	-0.09621804
24	0xbeb0e512	-0.34549767
25	0xbe92e864	-0.28692925
26	0x3ee18bc1	0.44051936
27	0xbe943ade	-0.28951162
28	0x3ea80b30	0.32821035
29	0xbed3cfc4	-0.4136945
30	0xbf28e2bc	-0.6597097
31	0xbe3edc58	-0.18638742
32	0x3e4c76a2	0.1996713
33	0x3c267429	0.010159531
34	0xbec754fa	-0.3893202
35	0xbeec8f1e	-0.4620294
36	0xbe4f44a5	-0.2024103
37	0xbe094068	-0.13403475
38	0xbe6b80b6	-0.22998318
39	0xbe88221e	-0.2658853
40	0x3f503e87	0.8134541
41	0xbe5b06d6	-0.21389326
42	0x3ec0333b	0.37539086
43	0xbeec8113	-0.46192226
44	0x3f543c00	0.8290405
45	0x3e990e4f	0.2989373
46	0xbee0e52d	-0.43924847
47	0xbeb4011b	-0.35157093
48	0xbe8245af	-0.2544379
49	0x3f61ef2b	0.88255566
50	0xbe558102	-0.20849994
51	0x3b1d0117	0.0023956948
52	0xbe6a3664	-0.22872311
53	0xbe166c30	-0.14689708
54	0x3f3cebf8	0.7379756
55	0xbeb93246	-0.36171168
56	0xbee6d621	-0.45085242
57	0xbed2e864	-0.41192925
58	0x3f0f7f72	0.5605384
59	0xbeab1d9d	-0.3342103
60	0x3ecd0ae0	0.4004736
61	0xbe5d00d1	-0.21582343
62	0xbf1ae726	-0.60508955
63	0xbed94a3a	-0.42439443
64	0x3f26bafc	0.65129066
65	0xbcfd3786	-0.030910265
66	0xbec27d4e	-0.37986225
67	0xbe885223	-0.26625165
68	0xbed5dcf7	-0.41770145
69	0xbea3be02	-0.31980902
70	0xbeaa172b	-0.332208
71	0xbf1ea5c9	-0.6197172
72	0x3ed51f31	0.4162536
73	0xbe2ba68f	-0.16762756
74	0x3f3bf346	0.7341808
75	0xbea7eceb	-0.32797942
76	0x3f78d5ac	0.9720104
77	0x3f081c72	0.53168404
78	0xbee394bc	-0.44449413
79	0xbec81288	-0.39076638
80	0xbe90ded4	-0.28295004
81	0x3f2de224	0.6792319
82	0x3d65209d	0.055939306
83	0xbebc6850	-0.36798334
84	0xbe9fbd8d	-0.31199303
85	0x3de9bca3	0.11412933
86	0xbf2ff803	-0.6873781
87	0xbed2b2f9	-0.4115217
88	0xbebb1af4	-0.36544
89	0xbf454e75	-0.7707284
90	0x3f06182f	0.5238065
91	0x3df9feb7	0.12206786
92	0xbf2a3487	-0.664864
93	0xbe8d7237	-0.27626202
94	0xbe715797	-0.23568569
95	0xbe738d16	-0.23784289
96	0xbe63baba	-0.222392
97	0xbddb3ae3	-0.10704591
98	0xbe255b30	-0.16148067
99	0xbe4f9268	-0.20270693
100	0xbdacb89a	-0.084336475
101	0xbeac9fa4	-0.33715546
102	0xbeac980f	-0.33709762
103	0xbe6526c8	-0.22378075
104	0x3eed9950	0.4640603
105	0xbf52bc39	-0.82318455
106	0x3ed7bccc	0.42136228
107	0xbdc0bc4e	-0.09410916
108	0x3f53f197	0.8279051
109	0x3f388ac5	0.72086746
110	0xbec965a4	-0.39335358
111	0xbe848d78	-0.25889182
112	0xbe2e8ec8	-0.17046654
113	0x3f8c5cb8	1.0965796
114	0x3d26d7bd	0.040733088
115	0x3ea8e7b6	0.3298928
116	0xbea1b78e	-0.31585354
117	0x3d99a1a8	0.075015366
118	0xbefd73cb	-0.49502406
119	0xbe0027cf	-0.12515186
120	0xbea36b68	-0.31917882
121	0xbec79fb3	-0.38989028
122	0x3efa045b	0.48831448
123	0xbeb0ee4c	-0.34556806
124	0xbf05f9f2	-0.5233451
125	0xbe57d7bb	-0.21078388
126	0xbf31de07	-0.6947941
127	0xbf2804c1	-0.65632254

out.bias f4 [4]
0	0x3c12dc78	0.008963697
1	0x3e242a7a	0.16031829
2	0x3e25ee0c	0.16204089
3	0xbdeae558	-0.11469525
