DQN/dqn.pth (torch, 30663 bytes, 8 tensors)

fc1.weight f4 [64, 8]
000000 38 97 09 3f df 40 55 be fe 26 af 3d a6 c6 74 bd
       0.53746367 -0.20825528 0.08552359 -0.05975976
000010 a6 e4 21 3e 4d 13 b0 be 02 99 2b be b5 a2 38 3e
       0.15809879 -0.34389725 -0.16757587 0.18030818
000020 93 83 93 be ea 4e bc bf 06 20 d8 3e 9f ad 48 bf
       -0.2881132 -1.4711583 0.42211932 -0.78389925
000030 ec a2 a7 be ad 5f 25 be b7 31 4f 3e c7 f3 42 3d
       -0.32741487 -0.16149779 0.20233808 0.047595765
000040 3c 76 ac 3e a2 67 22 be a4 73 b3 be 82 cb 06 3d
       0.33683956 -0.15859845 -0.35049164 0.032908924
000050 ef 13 75 bf 8c b6 15 bf 12 d4 80 bd 72 e2 a3 3e
       -0.9573354 -0.5848167 -0.06290449 0.32008702
000060 53 ee 23 3e 44 13 cb be fd 77 09 be 19 06 f1 be
       0.16008882 -0.39663136 -0.13424678 -0.47074965
000070 bf 90 00 be e2 52 06 3f e5 56 2c 3e 1a d7 5f bf
       -0.12555216 0.5247022 0.16830023 -0.87437594
000080 8f d4 6d 3c a0 4d a9 be 3e 0f cb 3e 86 88 4e 3f
       0.01451601 -0.33067036 0.39660066 0.8067707
000090 32 04 dc 3e ec 06 d9 3e ae af a8 be a2 51 ce be
       0.4297195 0.42388093 -0.32946533 -0.40296656
0000a0 10 c0 4a 3e 3b ab 0a be 73 90 17 bf 86 60 49 3e
       0.19799829 -0.13541882 -0.59204787 0.19665727
0000b0 52 a7 41 bf 06 98 70 bf b2 14 8b 3d 1d 98 f5 3c
       -0.75645936 -0.9398197 0.06791057 0.02997976
0000c0 73 63 dc be 9f 47 14 be 1b cb ff 3e b6 f6 32 bf
       -0.43044624 -0.14480446 0.49959645 -0.699077
0000d0 72 d6 6a 3f 99 0f b8 3a 7c e2 9e 3e b1 8a c7 3d
       0.9173347 0.0014042734 0.3103217 0.0974325
0000e0 7d e4 13 3c 78 59 50 be 32 4d d2 3e ef bc 26 bf
       0.009026644 -0.2034663 0.4107452 -0.6513204
0000f0 ec 09 8b bf 18 9a ef bd 1e 33 46 3e 8c 65 49 3e
       -1.0862403 -0.11699313 0.19355437 0.19667643
000100 f2 b2 da 3d eb 6b b6 bd de 71 92 be 73 1b 74 be
       0.10678662 -0.089073025 -0.286025 -0.23838596
000110 b1 7f b9 3d f6 da 84 bf 42 68 1d bf 80 93 08 3d
       0.09057558 -1.0379322 -0.6148721 0.033343792
000120 0b e0 47 bf 0d 4e d7 be e3 e7 14 3e 6b 66 f1 be
       -0.7807624 -0.42051736 0.14541583 -0.4714845
000130 16 d2 17 3e 6e c6 c9 3e 5e d2 85 3c f7 df e9 bc
       0.14826235 0.39409202 0.016335662 -0.028549178
000140 f7 53 48 be 9d 1c 39 bf 69 26 4c 3e f2 be 42 bf
       -0.1956328 -0.72309285 0.19936527 -0.7607261
000150 57 bf f3 bc 20 56 1f bf 21 5b c2 3e ce d6 0b bd
       -0.029754324 -0.6224079 0.3796015 -0.0341404
000160 b2 f2 83 be e7 6b 2a be b3 2e 72 be 35 b6 70 3d
       -0.257711 -0.16642724 -0.23650627 0.058767516
000170 dc 11 c1 3e 6a 22 00 bf 32 6c bf 3d 64 29 19 3f
       0.37708938 -0.5005251 0.093468085 0.5982878
000180 1b 95 59 bd ec 11 bf 3b 4a 51 a4 3d b3 85 9d 3d
       -0.053120714 0.005830994 0.08023317 0.07691517
000190 40 da ba bf e8 af 03 bd ba 2e e0 3d a6 b2 19 3e
       -1.4597855 -0.03215018 0.109464124 0.15009555
0001a0 0f fb 38 3f 41 ab e6 be fa 0f 82 be 8e 76 2d bf
       0.72258085 -0.4505253 -0.25402814 -0.67759025
0001b0 dd 67 96 3e b0 a7 de bc 47 39 42 3e 10 ac 74 be
       0.29376116 -0.027179569 0.18967162 -0.23893762
0001c0 61 fd 18 bd 4d 56 d1 be 51 e3 21 3f 32 71 c0 be
       -0.037351016 -0.40886155 0.6323748 -0.3758636
0001d0 22 69 cd bc 3f 56 47 3d b2 01 b2 bc b7 c0 34 3e
       -0.025074545 0.048666235 -0.021729324 0.1765164
0001e0 10 51 8a bf a4 b3 88 bf 67 5c f0 be 53 eb 45 be
       -1.0805988 -1.0679822 -0.46945497 -0.1932805
0001f0 55 b3 92 3d fa 9d ff 3d 0a d8 a6 3e e8 84 a5 3d
       0.07163111 0.124813035 0.325867 0.080819905
000200 3f cc 59 bf 88 cd bc bd 3b 8e cf be 8a 5d 08 be
       -0.8507728 -0.092188895 -0.405382 -0.13316932
000210 d0 6c 3e 3e d1 14 1a bc 52 a4 e1 be 37 f3 39 bd
       0.18596196 -0.009404377 -0.4407068 -0.045397963
000220 45 97 75 3e e4 f5 0d bf cd 4e f0 3e e8 85 08 bf
       0.23983486 -0.55453324 0.4693512 -0.53329325
000230 57 bd 00 be 90 0a fa bd 19 f2 9b 3e 6c b9 dc 3e
       -0.12572227 -0.12209046 0.30458143 0.43110216
000240 3d d1 0d 3e 29 43 11 bf 77 32 3c bf 24 43 71 be
       0.1384935 -0.56743103 -0.73514503 -0.23560768
000250 8d fa 1b bd af ed 98 bd 09 4e d9 3c 11 4d 13 be
       -0.03808074 -0.074672095 0.026526468 -0.14384867
000260 20 3c a3 3e c6 c3 81 bf d2 82 ac be 89 1f 83 be
       0.3188181 -1.013787 -0.33693558 -0.25609997
000270 91 f2 0c be 71 e9 c8 3d ac 81 83 3e 16 d4 1e 3f
       -0.13764407 0.098101504 0.2568487 0.6204237
000280 94 8b 83 3e 6d 79 13 3e 51 bd ac 3e b8 ca ad 3e
       0.25692427 0.14401789 0.33738187 0.33943725
000290 a7 94 62 bf 90 76 47 3d ed 4e 22 bd 75 1a c1 be
       -0.88508075 0.048697054 -0.03962605 -0.37715498
0002a0 8d cd c3 3d 11 71 86 be cc 9c 1d 3e cd a3 2a 3f
       0.0956069 -0.26258138 0.15391845 0.6665619
0002b0 48 d3 90 3e 67 48 4b 3e c5 87 b3 3e b0 11 60 be
       0.28286195 0.19851838 0.3506452 -0.21881747
0002c0 81 af 8e 3e 8d 5f f5 bc ee fd 54 3f 78 7a 3a 3f
       0.27868274 -0.029952789 0.83199966 0.7284312
0002d0 ba d0 d3 3e 9e e1 80 3e dc ae 14 3e 4c 35 9b 3e
       0.41370183 0.25172132 0.14519829 0.303141
0002e0 69 0b d7 3d 18 77 53 be 01 21 76 3e a5 29 8c bf
       0.10500223 -0.206509 0.24036027 -1.0950209
0002f0 2b 55 a2 3e bc a7 41 bd 0c 4f 7e be 97 59 84 3c
       0.31705603 -0.047279105 -0.24834841 0.016156001
000300 48 81 98 3e 4d 22 11 3d 88 59 aa 3c e3 01 dd 3d
       0.29786134 0.035433102 0.020794645 0.107913755
000310 c5 6b 3c be cf ef 15 bf f0 aa 59 be af 39 f8 3e
       -0.18400486 -0.58569044 -0.21256614 0.4848151
000320 a4 a7 6c bf a0 7b b8 3c b3 40 00 bd e5 d6 c7 bd
       -0.924433 0.022519886 -0.031311702 -0.09757785
000330 9d 77 14 3f 79 fa 25 bd c1 c0 11 bf 0e ee c1 3e
       0.57995015 -0.040522072 -0.56934744 0.37876934
000340 b5 6e 90 be 4c 84 a6 bc 35 2b a6 be 53 1b cc 3e
       -0.28209463 -0.020326756 -0.3245484 0.39864597
000350 0f 61 5e bd 7c c7 00 3d 93 02 6d 3e a0 81 85 3d
       -0.05429178 0.031440243 0.23145513 0.06518865
000360 68 b5 f8 bd 27 85 ae bf d8 b1 0c be fe d6 7e 3e
       -0.121439755 -1.3634385 -0.13739717 0.248867
000370 83 c2 57 3f 09 11 e1 3e 86 90 0d bc b3 d9 19 3e
       0.84281176 0.4395831 -0.008640414 0.15024452
000380 b7 86 71 be 45 f3 4d 3e ba 3f af 3e 2d 3f d7 bc
       -0.23586546 0.20112331 0.34228307 -0.026275242
000390 84 91 b0 3f c2 46 27 bd 14 e8 48 3b a5 6f 46 3e
       1.3794408 -0.040838964 0.0030655907 0.19378527
0003a0 50 b3 eb be d8 5f c3 be 31 9b 86 bf 23 c3 c9 bd
       -0.46035242 -0.3815906 -1.0516111 -0.098516725
0003b0 4e 3c bf 3e c0 7d 48 be fe 04 21 3f d2 5a ac 3c
       0.37350696 -0.1957922 0.6289824 0.0210394
0003c0 e0 d7 9a 3d 8d b9 cf be dc 31 f8 3e a4 56 ac be
       0.07560706 -0.40571252 0.4847554 -0.33659852
0003d0 11 88 97 be 5a ae 6e 3f 3c 58 00 bf 9e 6d 66 be
       -0.29595998 0.9323479 -0.50134635 -0.22502753
0003e0 90 88 7d 3b d7 0c 2e 3e ef 60 0a bf 7f c4 7f 3f
       0.0038686134 0.16997086 -0.5405416 0.99909204
0003f0 53 12 39 3e 18 67 c9 be 7e fb 17 bd 18 b2 83 be
       0.18073396 -0.39336467 -0.037105076 -0.25721812

fc1.bias f4 [64]
000000 cb 69 ac be ae de 6c be 3a 3b 87 be b6 b5 ea bd
       -0.33674464 -0.2313182 -0.26412374 -0.1146044
000010 ff 13 92 be 84 3e c5 bd 9b 70 5f 3e cb 28 30 3e
       -0.2853088 -0.096310645 0.218203 0.17203061
000020 c6 8a ce bd 63 31 4d be e1 c1 d8 bc 35 d3 ec 3c
       -0.10085063 -0.20038371 -0.026459636 0.028909305
000030 57 38 d0 3c 51 12 39 3e 68 8d 61 3e 7b 0a d5 be
       0.02541749 0.18073393 0.22026598 -0.41609558
000040 8c 8e c4 bc 10 6c 05 be 15 27 9d 3e af 82 cd be
       -0.023993753 -0.13029504 0.3069388 -0.40138766
000050 de d0 01 be 06 b2 e9 3d 9e f2 aa be 0b 93 b7 3e
       -0.12677333 0.114109084 -0.33388227 0.35854372
000060 20 85 2b 3e 38 ab c5 be c1 56 b9 3e 55 41 44 3e
       0.16750002 -0.38607192 0.36199 0.19165547
000070 e7 06 0d bd 52 b1 2f 3d 64 a9 0c 3f 7a a3 0b be
       -0.03443041 0.042893715 0.5494597 -0.1363658
000080 1e bd c0 3d ae 01 ce bd bf 9c 19 3e 85 20 1e be
       0.09411071 -0.10058914 0.150012 -0.15442093
000090 b0 89 33 3e 4b 33 ad bc a5 2c e0 3d cb 2b 91 be
       0.17532992 -0.021142622 0.10946015 -0.28353724
0000a0 6a 18 b2 3e eb e6 8c 3e cd 9c b1 3e 96 3b 88 3e
       0.3478425 0.27519926 0.34689942 0.2660796
0000b0 33 fd 27 3e 6c 15 0d 3d e0 5f 02 be 16 c8 05 be
       0.16405182 0.034444258 -0.12731886 -0.13064608
0000c0 d8 f5 1b 3e f6 a6 b6 be 20 3f e0 bd 01 59 3e 3e
       0.152305 -0.35674256 -0.1094954 0.1858864
0000d0 d3 e0 a9 3e ba 63 0c be da be dd be 07 be 19 3e
       0.3317934 -0.13709918 -0.4330967 0.15013896
0000e0 46 5a 56 3c 80 9c 0b 3e d3 91 84 3d 55 76 1c 3e
       0.013083046 0.13633919 0.06473126 0.15279515
0000f0 35 eb 7c be f1 84 2a bd 0f a9 8e 3e 7a 54 ff 3d
       -0.246991 -0.04163069 0.27863356 0.124672845

fc2.weight f4 [64, 64]
000000 7c 63 ea bd b0 79 f6 3c 48 2f 9a bd f6 34 f1 bd
       -0.114447564 0.030087322 -0.075285494 -0.117776796
000010 00 c6 d5 3c 56 f5 b7 3d 44 56 c9 3d a0 0e d6 3b
       0.02609539 0.08982341 0.09830907 0.006532505
000020 f0 3a a8 3c 9c 2c 8a 3d 20 73 67 bc f8 b2 ad bd
       0.020535916 0.0674679 -0.014126569 -0.08481401
000030 fc 7a a9 bd 80 2c 35 3d e0 6a 9c bb 90 fe 83 bd
       -0.082754105 0.04423189 -0.0047734827 -0.06445038
000040 b0 76 d1 3d 54 d9 c6 bd 8c df 9d bd bc 25 8e bd
       0.10227716 -0.09709421 -0.07708654 -0.06940791
000050 22 20 9d bd 3a 14 c0 bd 80 65 a8 ba 1a 79 d9 3d
       -0.076721445 -0.09378858 -0.0012847632 0.106188014
000060 04 0f 5d bd 6c 5d de bd 7c c7 e4 bd 0c c9 98 bd
       -0.0539694 -0.108576626 -0.11170861 -0.07460222
000070 bc ea 82 bd 88 33 ed bd 00 b0 be bd 56 b5 a5 bd
       -0.06392428 -0.115820944 -0.09310913 -0.08091228
000080 80 bf e2 bc b4 d5 4f 3d a0 49 14 3d 40 f4 a9 bc
       -0.027679205 0.050740913 0.036203027 -0.02074635
000090 88 5d d8 3c 10 8f 01 3d b8 73 ce bd 5c 2b 29 3d
       0.026411787 0.031630576 -0.10080665 0.041301116
0000a0 b8 90 58 3d b4 e6 2a 3d 28 e5 63 bd 98 e8 8b bd
       0.05287239 0.041723922 -0.055638462 -0.06831473
0000b0 00 dd 4c ba 44 49 4b bd d8 66 87 bd 26 79 a2 bd
       -0.0007814914 -0.04963042 -0.06611413 -0.079332635
0000c0 c8 2b a7 3d 96 4c 9f 3d 18 d6 19 bd 80 10 1b bd
       0.081626475 0.077782795 -0.03755769 -0.037857533
0000d0 68 d1 b1 3c 5a df e2 bd 5e 60 c4 bd 30 c1 11 3c
       0.021706298 -0.11077757 -0.09588693 0.008896157
0000e0 34 0e 07 bd b0 14 f0 3d 4c 5c df bd 32 40 b0 bd
       -0.03297253 0.11722696 -0.10906276 -0.08605994
0000f0 e6 8d d3 bd 20 f0 e1 3d 00 e0 c8 bd 8a bd 9c bd
       -0.10329799 0.11032128 -0.098083496 -0.07653339
000100 4e 5b c8 3e d9 4a cd 3e df 99 3f 3e 42 75 88 3e
       0.3913216 0.40096167 0.18711041 0.2665196
000110 e1 36 d4 3e e1 84 04 3e 68 d6 bd bc cb 5e 40 3e
       0.4144812 0.12941314 -0.023173526 0.1878616
000120 ba 25 85 3e b1 c5 b5 3e 49 0b 6b 3e 99 2c b9 bd
       0.26005346 0.3550239 0.22953524 -0.090417095
000130 7d be 08 bf f3 99 99 3e 6a a2 6a 3e 37 a4 f9 3e
       -0.5341566 0.30000266 0.22913519 0.48758098
000140 64 fb a2 3e 48 ab ad 3e 41 15 d7 3d be 07 49 bc
       0.3183242 0.3391974 0.10502101 -0.012269912
000150 a2 14 c0 bc 5f 70 15 3e 1d dd 1a 3f 27 83 c2 3b
       -0.023447338 0.14593647 0.6049364 0.0059360447
000160 4f 27 58 3e 8f f5 6f 3d 5d 68 d4 bd 84 e4 16 bc
       0.21108745 0.058583792 -0.10371468 -0.009209756
000170 4a cc 91 3e d5 18 80 be 61 f5 be 3d d8 16 86 be
       0.28476173 -0.25018945 0.09324146 -0.26189303
000180 4f cf a5 3e bf 70 ef bd e9 6f 4b be cc 25 4c 3d
       0.32384726 -0.116914265 -0.19866909 0.049840733
000190 90 a2 09 ba cd 6b 5d be a1 6d c4 3d 03 2f 33 3e
       -0.0005250359 -0.21623154 0.095912226 0.17498402
0001a0 f0 8f ad bd ff cf c1 3b 4d dc 38 3d 19 dd bd 3c
       -0.084747195 0.0059146876 0.04513197 0.023176717
0001b0 0e 24 cf 3b 81 f6 c2 3e 45 ee f2 be 7e 80 75 bc
       0.0063214367 0.38078693 -0.4744741 -0.014984248
0001c0 ad da d5 3d 05 c1 02 3e f2 7d a9 3d bf 64 95 bc
       0.104421 0.12768944 0.08275975 -0.018236516
0001d0 f1 cc 70 3d 5b 77 29 3e 6f c0 96 bb ed 85 da bc
       0.058789197 0.16549437 -0.0046005766 -0.026675189
0001e0 85 bd a7 3d d7 8c 9d be 20 cf 94 be 70 72 50 be
       0.08190445 -0.30771515 -0.29064274 -0.20356154
0001f0 d4 a1 0c 3e 47 cf b2 3e dc 32 3a 3c 66 5e 51 3b
       0.13733608 0.34923765 0.011364665 0.0031947135
000200 15 79 65 bb 37 b2 21 3e 52 81 80 3e 4d 1c a7 be
       -0.0035014797 0.1579064 0.25098664 -0.3263878
000210 d6 9e 80 3e dd 74 30 bd 9b ad 80 be 29 98 d4 bd
       0.25121182 -0.0430802 -0.2513245 -0.10380585
000220 ca f8 87 be 6d 09 3e bd e0 6c e4 be 69 47 06 bf
       -0.26556998 -0.046395708 -0.44614315 -0.52452713
000230 9a 17 77 bd 7d 3e 91 bd fe 78 b2 3b d7 6e 3e bf
       -0.060325243 -0.07091997 0.0054465523 -0.7438788
000240 bf 80 49 be 10 77 88 bb 48 83 9e 3e 59 01 40 3e
       -0.19678019 -0.004164584 0.30959535 0.18750514
000250 6a a7 52 3d 43 df 3b be c0 e3 02 3f 6e a2 42 3b
       0.05142919 -0.18346886 0.5112877 0.0029698866
000260 c4 58 51 be f4 d1 cf be 5d ce 92 be 3a 81 ec 3e
       -0.20444018 -0.4058987 -0.28673068 0.46192342
000270 ec 43 13 3e df 2a 8b 3e 30 26 8f 3e 57 7d 88 3e
       0.14381379 0.27181146 0.27958822 0.26658127
000280 0a 3b 2e 3d e4 00 56 be 95 25 45 3e c3 b6 de be
       0.042536773 -0.20898777 0.19252618 -0.4349881
000290 86 3d 69 be ad d2 ee 3c e6 3f b0 3c 93 9d 47 3e
       -0.22777376 0.029153192 0.021514844 0.19493704
0002a0 9c f3 d8 3e 08 72 1a 3c 99 fa 75 be c7 73 0d 3f
       0.4237336 0.009426601 -0.24021377 0.5525479
0002b0 bc 78 8f be 3f d5 4a be 2e 7b f7 be c2 06 f4 3d
       -0.280218 -0.1980791 -0.48336166 0.119153515
0002c0 f1 31 6a 3d 73 ed 98 bc e3 0f 4b 3e 17 ca a9 bd
       0.057176534 -0.018667912 0.19830279 -0.08290499
0002d0 7e 64 ce 3e a3 bf 2b 3c 33 34 18 bf e1 55 91 be
       0.40311044 0.0104827015 -0.5945465 -0.28385833
0002e0 15 98 b9 3d d3 fc 0d be ee a2 53 3e a0 07 dd 3e
       0.090622105 -0.13865976 0.20667621 0.4316988
0002f0 ff 36 11 be 54 8b 27 bc aa 73 c5 3e 67 49 26 3e
       -0.14181136 -0.0102260895 0.38564807 0.16238938
000300 d5 8a 6d bc 67 6a 7c 3d 4e 00 92 be 5a 13 0c 3d
       -0.014498432 0.06162491 -0.28515857 0.034198143
000310 16 5e 53 3c 90 30 53 3e f4 b8 ac be b6 6c 6d 3e
       0.01290085 0.20623994 -0.33734858 0.23186001
000320 02 a6 82 be 7f 06 c2 bd 72 54 e5 be fb e4 ce 3d
       -0.2551728 -0.09473895 -0.4479099 0.10102268
000330 ea 78 43 3e 52 8f 52 bf 51 ed 78 be c1 43 b0 3d
       0.19089094 -0.8224994 -0.24309279 0.08606673
000340 dc c7 8a be 22 12 f8 be a8 aa 97 3e be 25 b4 3d
       -0.27105606 -0.48451334 0.29622388 0.08796261
000350 0c 0b b5 3c 14 8a f1 be eb 88 b5 3e a8 7d e3 3c
       0.022099994 -0.47175658 0.35456023 0.027769879
000360 97 34 24 3e 1d 17 96 3c 62 c1 ac be 73 fe 76 bd
       0.16035686 0.018321568 -0.3374129 -0.060301255
000370 16 31 78 3e b3 34 95 be a0 29 d6 bd 88 6d 8b be
       0.24237475 -0.2914177 -0.10457158 -0.27232003
000380 40 5b 05 3e a6 c1 69 be 67 ce 0b 3e 90 3a 65 3e
       0.1302309 -0.22827777 0.13652955 0.22385621
000390 75 c5 92 3e 3d ce 8d be a0 67 d7 bc 80 3a 00 3b
       0.28666273 -0.2769641 -0.02629453 0.0019566119
0003a0 1f 41 95 bc 8a ff a1 be c9 f1 08 bf 13 74 c6 be
       -0.018219529 -0.31640273 -0.53493935 -0.38760433
0003b0 52 f2 7f be 96 cb be 3d f5 a4 85 be a2 28 5f be
       -0.24994782 0.09316175 -0.26102415 -0.21792844
0003c0 c8 73 3f 3c bf 3d 00 be bd 5f 3a 3f f4 7e 40 3d
       0.011685319 -0.12523554 0.72802335 0.046996072
0003d0 70 2c 96 bf d7 31 6e 3d ba c6 11 3f 3f 9f 99 3e
       -1.1732311 0.058153 0.5694386 0.30004308
0003e0 fd 74 b7 3c 21 4c e0 be 7f 93 18 3e b5 b6 df bc
       0.022394652 -0.43808082 0.14900015 -0.027308801
0003f0 f7 d0 9d 3e 9f e6 a8 bd b5 c6 91 be aa 47 89 bd
       0.3082349 -0.082471125 -0.28471914 -0.06703122

fc2.bias f4 [64]
000000 0e 74 b9 bd 2b 43 b9 3d 83 44 ec 3c 9a 06 10 be
       -0.09055339 0.090460144 0.028841263 -0.14065018
000010 5c 01 4c 3e 0b 9f f4 bd f5 36 ff 3d 09 0c 95 3d
       0.19922394 -0.119443975 0.12461654 0.07277686
000020 2b a5 14 bc 8f 45 f4 3d 37 d3 2e be 21 f5 2d bd
       -0.009072582 0.1192733 -0.1707276 -0.0424701
000030 3e 4e 13 3c 0e 0f 70 be 41 1d 81 3c 1a 40 56 3d
       0.008990822 -0.23443243 0.01576102 0.052307226
000040 c9 5b 08 3d 69 4b 1a 3e d0 aa 98 3e c1 3c c4 bd
       0.03329066 0.15067829 0.2981782 -0.095819004
000050 a5 48 4d bc 15 2a 84 bd 9f e0 73 3e 82 94 1f 3e
       -0.012529527 -0.06453339 0.23816155 0.15583995
000060 a5 91 1e bc d3 c1 a1 3d 96 9e 38 be 7c 9c 42 3e
       -0.009678279 0.07898297 -0.18029246 0.19005007
000070 5c 0c c4 bd da 7a 83 3d 60 17 ae 3e 83 6d 23 3d
       -0.0957267 0.064199165 0.3400221 0.03989936
000080 b4 88 1b be 54 8b 93 bd 1c 32 4e 3d 8e 0d d6 3d
       -0.15188867 -0.07204309 0.050340757 0.10451804
000090 c3 7b 3e be 48 89 5f be 5e d0 b2 3c 68 44 72 be
       -0.18601899 -0.21829712 0.021827873 -0.23658907
0000a0 22 9a 71 3d 8f 39 f1 3c c0 34 47 3d 39 71 14 be
       0.058984883 0.029446391 0.04863429 -0.14496316
0000b0 cb 89 21 3e 1a 42 b7 be 3d 9a 11 3e 34 0a 30 3e
       0.1577522 -0.3579262 0.14218993 0.17191392
0000c0 37 1c 83 bc 1b 19 4a be 01 3b 5d bc 25 4b 85 3d
       -0.016004665 -0.1973614 -0.013502837 0.06508473
0000d0 08 8e c7 3c 4f ea 9a 3d e2 ce 38 3e 65 5c 4a be
       0.024359718 0.07564222 0.1804767 -0.19761808
0000e0 f3 6d 6e 3e 12 2f 07 3b e4 6f ec bd a0 77 56 be
       0.2328413 0.0020627421 -0.11544779 -0.20944071
0000f0 eb f4 bf bc 03 d2 f5 3d 6e ba 7e 3e 02 87 2b 3e
       -0.023432216 0.12002947 0.24875805 0.1675072

fc3.weight f4 [32, 64]
000000 52 c8 9d bd 2c 07 39 bd 07 ed 92 3d 10 2e f5 bd
       -0.07704224 -0.045172855 0.07174116 -0.11971676
000010 68 35 85 bd 54 a8 82 bd 40 9d 36 bb b2 ef ad 3c
       -0.06504327 -0.06379762 -0.0027864724 0.02123246
000020 25 b0 cf bc 24 e1 0c be 77 28 9f 3c b9 da 88 bd
       -0.025352547 -0.1375776 0.019428475 -0.06682343
000030 3a f4 fc bd c6 db bc 3d d6 16 c6 bd e8 17 da bd
       -0.1235127 0.09221606 -0.09672324 -0.10649091
000040 33 1f 8c 3d 0d ea ed ba 47 28 8d bc 32 86 9b 3d
       0.06841888 -0.0018151418 -0.01723112 0.07593955
000050 a8 91 2a bd 51 91 63 3d be 9b 8f bc 39 2c 9c bd
       -0.041642815 0.055558506 -0.017530318 -0.07625622
000060 26 99 e3 3b 4c c1 ac bd 29 b7 05 3d a4 a1 5e 3d
       0.006945747 -0.08435306 0.03264538 0.05435337
000070 bc d0 0a 3d c1 b3 25 bd 58 7d 0b be dd 02 0c 3c
       0.03389047 -0.04045463 -0.13622034 0.008545605
000080 c6 03 9d bd 44 0c 7b 3d 0e fe 14 bc ef f9 51 bd
       -0.07666735 0.061290994 -0.0090937745 -0.051263746
000090 c3 a8 e2 3d 18 c8 a3 bc 26 fd 07 be 60 ca b6 bc
       0.11067345 -0.019992873 -0.13280162 -0.022313297
0000a0 9b 1c 06 3d 04 c1 14 3d 00 2d 9e 3d a0 12 70 3d
       0.032742124 0.036316887 0.07723427 0.058611512
0000b0 1c 37 e4 3d 20 22 ad 3b de 9c a1 bc 62 40 a3 3d
       0.11143324 0.005283609 -0.01972812 0.079712644
0000c0 07 1b 55 bd d7 bb 08 bc 0a 0e d4 bd 8b 7c 83 3d
       -0.05202773 -0.008345566 -0.1035424 0.06420239
0000d0 11 57 a7 bd 22 3d 0a bc f4 44 19 bc 7f c6 d9 3c
       -0.081709035 -0.008437427 -0.009354819 0.026583908
0000e0 2e c3 80 3d 71 44 e9 3d 9c fc 87 bd 7d 5b a3 bc
       0.062872276 0.11390007 -0.06639978 -0.019941086
0000f0 b4 b1 ae 3d 59 41 da bd 57 85 fb bd 05 0a 5f 3d
       0.08529988 -0.10656995 -0.12281292 0.054452915
000100 66 6c e3 3d 6f fa a7 3e 72 5d a6 be 67 c2 ec be
       0.1110466 0.32808253 -0.32493168 -0.46242067
000110 bf db bb 3e 2a 4d 28 be 5e 92 a1 bd 8a 88 8d 3e
       0.3669109 -0.16435686 -0.078892455 0.27643234
000120 d7 7a 88 3e 4a 81 0f 3e 8b 48 aa 3e 7d 11 80 3e
       0.2665622 0.14014164 0.3325847 0.25013342
000130 c8 e3 00 3e 5f 7b 93 3e df e1 5f 3b 23 9c bf bb
       0.12586892 0.28805062 0.003416173 -0.0058474704
000140 b3 86 e4 bd 00 f1 b7 3d ab 2a 17 be 7c b2 14 be
       -0.11158504 0.08981514 -0.1476237 -0.14521211
000150 61 56 23 3d af 8f f2 3c c8 d6 da 3e a5 75 9a bd
       0.0398773 0.02960953 0.4274199 -0.0754197
000160 fa 29 b5 3e 92 74 ae be b8 e0 5e 3e 65 11 35 bd
       0.35383588 -0.3407331 0.21765411 -0.04420604
000170 da 2d 8f 3d f6 7e 24 3f a6 44 57 bd ed 57 97 be
       0.06991167 0.64256227 -0.052555703 -0.2955927
000180 d7 f1 14 bf e2 9b 3c 3e bd ff 1c 3e b8 f6 31 be
       -0.5818152 0.1841884 0.15331931 -0.17379272
000190 30 7b 35 3f 99 0d 53 3e e5 a6 a7 3d fc c9 07 3f
       0.70891094 0.20610656 0.081861295 0.5304258
0001a0 8e 94 e8 3d 2d 78 c3 3e dd 89 91 3e ac d2 21 3f
       0.113564596 0.38177624 0.28425494 0.63212085
0001b0 3e c6 88 3e 3d c3 44 3f a1 99 5e 3e 60 f7 f2 be
       0.26713747 0.7686041 0.21738292 -0.47454357
0001c0 38 3a 1b be a8 5d e9 bd bf 5d 98 3e fa 0a 0e be
       -0.15158927 -0.11394817 0.29759023 -0.13871375
0001d0 81 ba a6 3d f5 c4 e1 3d 68 86 12 be 87 a1 ca 3e
       0.081410415 0.11023895 -0.14309084 0.3957636
0001e0 37 ab 67 3d 3d 3f 8c be 79 e0 9e 3e e6 26 28 3e
       0.056559768 -0.27391997 0.31030634 0.16421089
0001f0 26 ab 2a 3f 03 eb 85 bc ae 3a 13 be b8 29 a8 be
       0.666674 -0.016347414 -0.14377853 -0.3284433
000200 7a 78 a6 3d 31 6b a2 bc c9 a9 9a 3d 17 02 b0 be
       0.08128448 -0.019826503 0.07551915 -0.34376594
000210 98 ee 25 bf a4 5f 7f bc 7c c9 ad 3d 9d 2a 1e 3e
       -0.6481719 -0.015586767 0.08485696 0.15445943
000220 15 07 6a 3e 86 88 38 bf 20 36 98 bc 23 b1 03 3d
       0.22854264 -0.7208332 -0.018580496 0.032151353
000230 d7 c4 00 3e f7 3d ec bc cf 10 7b bd 73 c2 03 bd
       0.12575088 -0.02883814 -0.061295327 -0.032167863
000240 1b b8 46 3e 8e 0f 6c be 0f 92 1d 3d 44 d8 44 3e
       0.19406168 -0.23052809 0.03846937 0.19223124
000250 ef 8e fa 3d fb f7 0f bf b1 0a b8 3e f3 a6 3d bd
       0.12234294 -0.56237763 0.35945657 -0.046301793
000260 30 6e eb bd 5f 88 19 3f ec 74 8d be 9f 63 6c be
       -0.11495626 0.5997371 -0.27628267 -0.23084877
000270 d0 e5 11 be 37 91 27 bf 7b 4f 83 3e 48 ec 95 3e
       -0.14247823 -0.65455955 0.25646576 0.2928183
000280 9d 4d d6 3e 29 b4 c7 bd 4d 4c ba be 54 df 26 bf
       0.4185609 -0.0975116 -0.36386338 -0.6518452
000290 5e 1f 86 be 4a b0 cf 3c 96 b4 89 3d 80 20 05 bf
       -0.26195806 0.025352616 0.06723897 -0.52002716
0002a0 73 b2 48 bc 84 2a e7 be db 2a f0 be 46 34 fe 3d
       -0.012249577 -0.45149624 -0.46907696 0.12412314
0002b0 b2 e4 ed 3d 84 97 44 bc 47 f6 28 3e b4 87 7a bd
       0.11615886 -0.011999015 0.16500197 -0.061164573
0002c0 c8 a2 02 bd b5 29 84 3c 1f cf 5f 3d 65 49 5c 3e
       -0.03189352 0.016133169 0.054640885 0.21512373
0002d0 94 86 e7 3d fd 6d 4a be 17 32 f1 bd a6 1a f0 3c
       0.113049656 -0.1976852 -0.11777132 0.029309582
0002e0 67 18 08 be d2 8a c1 bd c9 d4 8d be 0b 48 70 3d
       -0.13290559 -0.09450306 -0.27701405 0.058662456
0002f0 83 d4 0f be a6 a6 71 3e 37 b4 b2 3c d6 8c ca 3e
       -0.1404591 0.23598728 0.021814449 0.39560574
000300 cc f4 9d bd ae 26 db 3d 32 f9 60 be 95 92 ef 3e
       -0.07712707 0.10700737 -0.2197006 0.4679152
000310 23 de c1 3d a3 ae df bf cd ab 80 3f fa ff 8e 3d
       0.09466197 -1.747517 1.005243 0.069824174
000320 df f0 a8 be e4 ae 12 3f 6c 6e 07 3f ff 46 95 bd
       -0.3299627 0.5729811 0.52902865 -0.07288932
000330 42 8d 25 bd c7 07 8d 3e 9f b8 52 3e 0d 21 a2 3e
       -0.040417917 0.27544996 0.2057824 0.3166584
000340 c2 f2 04 be 64 06 1b bf 81 5a 36 3d 91 cc 6a be
       -0.1298323 -0.60556626 0.044519905 -0.22929598
000350 0c 07 2c 3e 13 7a 98 bb c6 5d 70 3e 0b 4d 8a bd
       0.16799563 -0.0046532243 0.23473272 -0.06752976
000360 64 74 71 be 8c da 70 3d f3 1c ac 3e 8d f4 ac be
       -0.23579556 0.058802173 0.33615837 -0.33780327
000370 2e 0c 40 3e 97 a4 47 bf 83 f1 04 be c8 d0 ba 3d
       0.18754646 -0.7798552 -0.12982754 0.09121853
000380 ce b4 80 3e 2b 68 81 be b6 2b cc be 03 25 08 3e
       0.25137943 -0.25274786 -0.398771 0.13295369
000390 09 1c 53 3d 82 f0 cc 3e de c2 00 bd ef de 37 3e
       0.05154041 0.40027243 -0.03143584 0.17956136
0003a0 a5 a5 1f bd 4a ad e1 3d 3f 7e 12 be 76 62 e1 3e
       -0.03897633 0.110193804 -0.14305972 0.44020432
0003b0 f5 b2 90 bd ec 48 1a 3f 5e e7 fc 3d c4 e8 1f bf
       -0.07065383 0.6026752 0.12348817 -0.6246455
0003c0 df 00 17 3e 8c 17 3e 3d da 94 9d 3d 31 3b 84 be
       0.14746426 0.046409175 0.07694407 -0.2582641
0003d0 e7 02 03 be 4f e5 04 3f 95 20 7c 3c 43 ce 2c bc
       -0.12794076 0.519124 0.015388628 -0.0105472235
0003e0 d1 50 74 3c 92 41 27 3e c4 6a 65 3e 79 c8 4a 3e
       0.014911846 0.16333607 0.22404009 0.19803037
0003f0 9d 8d 73 3e 4b 41 6b be 7b c7 ca bd 9c 99 ca bd
       0.2378449 -0.22974126 -0.09901329 -0.0989258

fc3.bias f4 [32]
000000 2e 94 d6 bd 8c fc 50 3e 2c e2 a7 bd d8 97 ec 3d
       -0.10477482 0.20408839 -0.08197436 0.115523994
000010 a7 81 26 3e 2f c6 ef 3d 70 d2 c7 bd f2 fa 91 3c
       0.16260396 0.117077224 -0.09756935 0.017819855
000020 44 9f 9f bd 12 38 bd 3d 64 75 1f 3e d5 30 05 3e
       -0.077940494 0.0923921 0.15572125 0.13006909
000030 70 01 66 3c 0e 25 25 3e 83 e6 5c bb 2d a8 4d 3e
       0.014038429 0.16127416 -0.0033706732 0.20083685
000040 a5 c1 6a bd a0 d7 74 be 3a 7b 54 be 23 b7 eb 3d
       -0.05731358 -0.2391038 -0.20750132 0.1150954
000050 ea d2 9e 3d a5 a6 9d 3d 0a 04 9c 3e e7 83 50 3d
       0.077550724 0.076978005 0.30471832 0.050907042
000060 33 36 e8 3c 6e 13 c2 3d cb a2 88 be 74 3f 62 3e
       0.028346157 0.09476362 -0.266867 0.22094518
000070 00 30 07 3e 21 2c 7e 3e 95 4c c9 3d 79 a7 4e 3e
       0.13201904 0.24821521 0.0982906 0.20181073

out.weight f4 [4, 32]
000000 aa ec bd 3d ce 95 73 be d4 ad 97 3e c4 1e 90 3e
       0.09273656 -0.23787615 0.29624808 0.28148472
000010 6a 94 22 3f 34 ed fa 3e 54 b0 06 3e c3 f4 02 3e
       0.6350771 0.49009097 0.13153201 0.12788682
000020 a2 c0 93 be 33 f4 08 3f 35 6c f6 3e 73 0e f0 3c
       -0.28857905 0.5349762 0.4812943 0.029303765
000030 3b 3b f0 be f1 0b f3 be 10 25 a1 3e 41 c3 ac be
       -0.4692019 -0.47470048 0.3147359 -0.33742717
000040 7d 7e 02 bf c8 ce a2 be 90 bb e9 bd 2d 07 5f be
       -0.50974256 -0.31798387 -0.11412728 -0.21780081
000050 05 ab 3f 3f 0f 79 3d 3f 45 5b 62 be a5 16 35 bf
       0.7487033 0.74012846 -0.22105129 -0.7073768
000060 46 bf 05 3f 3e 91 ac be 6e 98 c5 be 8a b0 ff be
       0.52244985 -0.3370456 -0.38592857 -0.49939376
000070 d9 fd 9d be 38 0b 8e 3e ee 16 dc be 16 2a f1 3d
       -0.30857733 0.27742934 -0.42986244 0.117756054
000080 60 f8 77 bd 77 7a 5e 3c 75 4b c5 3e c2 e5 7b be
       -0.060539603 0.013579003 0.38534132 -0.24599364
000090 1d 6d 26 3f 50 2d 1f 3f ec 8d aa 3d 0e 91 90 be
       0.65010244 0.62178516 0.08327851 -0.28235668
0000a0 d6 42 b3 3d 85 6c 29 3f 5e cf 2b 3e 2e 19 f2 bc
       0.08752982 0.6618121 0.16778323 -0.029553022
0000b0 bd 5a 33 be 4b e8 02 bf 2e 90 e0 3c 1c 61 78 be
       -0.17515083 -0.511357 0.0274125 -0.24255794
0000c0 0a 37 6b be 8d 4e 09 bf be bd fb be 6b e5 44 be
       -0.22970214 -0.53635484 -0.491682 -0.19228141
0000d0 f3 33 f6 3e 8a 0f e2 3e 25 41 d3 be 8a cd 09 bf
       0.4808651 0.4415248 -0.4126064 -0.5382925
0000e0 48 ad 19 3f 6f 8b 17 be 99 c3 4e 3d c9 ed bc be
       0.6003003 -0.14799283 0.050479505 -0.36900166
0000f0 8c 13 c3 be 89 cd b9 3e 8b b7 cc be 40 e4 17 3f
       -0.3810085 0.36289623 -0.39983782 0.59332657
000100 a8 e2 28 bd f9 ae e1 be e8 fc 3e 3f 10 76 82 be
       -0.04123178 -0.44078806 0.74604654 -0.254807
000110 9a 24 29 3f 51 a5 de 3e 11 32 03 3d b8 d0 e9 be
       0.66071475 0.434855 0.03203017 -0.45667052
000120 38 44 00 be 7d 54 10 3f e5 da c0 3e 3f 2f 9e be
       -0.12526023 0.5637892 0.37667003 -0.3089542
000130 95 2d 58 be c4 02 1e be bc 50 b2 3e 52 5b 31 be
       -0.21111138 -0.15430743 0.3482722 -0.17319992
000140 36 24 8a be e2 2e f0 be c3 28 19 3e 78 a6 2d be
       -0.26980752 -0.4691077 0.14956956 -0.16958034
000150 64 f1 bc 3e 00 bb de 3e fa 02 c7 be 30 a0 31 bd
       0.36902916 0.43502045 -0.38869458 -0.043365657
000160 97 a4 15 3f ef 61 0b bf a9 f2 b7 be dc aa 16 3e
       0.5845427 -0.5444631 -0.35927323 0.14713615
000170 39 92 32 be 94 50 ba 3e 60 77 3d be a6 27 87 3e
       -0.17438592 0.363896 -0.18502569 0.26397437
000180 a6 b7 05 be 1f de e2 be cf 50 c1 3e 05 11 0b 3f
       -0.13058338 -0.4431009 0.37756965 0.54322845
000190 b7 9b 2e 3f 9e b4 20 3f 2b d3 14 3e 4d ed 96 be
       0.6820635 0.627756 0.14533679 -0.2947792
0001a0 f6 dd a3 bc e3 41 01 3f 1d a6 05 3f 01 6c 48 be
       -0.0200033 0.5049116 0.52206594 -0.1957245
0001b0 03 70 e5 be 86 32 18 be 95 65 7f 3e f4 16 dc be
       -0.4481202 -0.14863023 0.24941094 -0.42986262
0001c0 73 1d 79 be fc 1a 93 be a9 41 a6 bb 64 64 c8 be
       -0.2432764 -0.28731525 -0.0050737453 -0.39139092
0001d0 03 fe 35 3f db 39 2a 3f db 03 62 be 01 c3 d3 be
       0.71090716 0.6649453 -0.22071783 -0.41359714
0001e0 82 65 be 3d d5 d7 1d bf 65 7f 47 3e a1 38 9f bd
       0.09296705 -0.6165746 0.19482191 -0.07774473
0001f0 8c 29 96 bd 40 cd a8 3d 76 22 ca bd f5 3f 07 3d
       -0.07332143 0.08242273 -0.09869854 0.03301998

out.bias f4 [4]
000000 50 77 ba 3d 40 05 8e 3d a5 18 98 bd 20 98 66 3e
       0.09104788 0.06934595 -0.074265756 0.22518969
